mnist-logistic.pth (torch, 32962 bytes, 2 tensors)

linear.weight f4 [10, 784]
0	0xbb5eb0f0	-0.0033979975
1	0x3c3fe114	0.011711378
2	0xbc51ae46	-0.012797898
3	0xbc993795	-0.018703261
4	0x3b94c078	0.0045395456
5	0x3ccf25c0	0.025286555
6	0xbc90beb3	-0.017669057
7	0xbc986fca	-0.018607993
8	0x3aefa400	0.0018283129
9	0x3b34e210	0.0027600564
10	0x3a6fc580	0.0009146556
11	0x3ba21180	0.004945934
12	0xbcb18d03	-0.021673685
13	0x3cf6c6b8	0.030124053
14	0x3d027380	0.03184843
15	0x3cc172bd	0.023614282
16	0xbced3835	-0.028957466
17	0xbcda3dd8	-0.026640818
18	0x3c818ea4	0.015815087
19	0xbcb5a1e8	-0.02217193
20	0x3b431850	0.002976913
21	0x3a417740	0.00073801354
22	0x3c276200	0.010216236
23	0x3c844ba4	0.01614935
24	0xbc99285c	-0.018696003
25	0xbcc64c83	-0.024206406
26	0x3d0169b1	0.031594936
27	0xbd04cba2	-0.032420762
28	0x3af0ca40	0.0018370822
29	0x3cc93d1e	0.024565276
30	0xbcde9aea	-0.027173478
31	0x3cddb46e	0.027063575
32	0xbc24f9ac	-0.010069292
33	0x3ce47c1a	0.027891207
34	0xbccb49fc	-0.024815552
35	0xbc4e6a68	-0.012598611
36	0x3b784c72	0.0037887362
37	0x3d082bad	0.033244777
38	0x3c55041a	0.013001466
39	0xbd1250cc	-0.035721585
40	0xbb1f2194	-0.0024281489
41	0x3a341d82	0.0006870852
42	0xbcb64fc7	-0.022254838
43	0x3c37fc38	0.011229567
44	0xbcb0e18f	-0.02159193
45	0xbcc5d634	-0.024149992
46	0xbcbb61c2	-0.022873763
47	0x3caa573c	0.02079355
48	0xbbe9aab7	-0.0071309465
49	0xba32db7d	-0.00068228674
50	0x3d0db132	0.034592815
51	0xbcfd1988	-0.030895963
52	0x3c1d2cdc	0.009593215
53	0x3b581470	0.0032971166
54	0xbbb96f30	-0.0056590065
55	0xbba9e578	-0.0051848255
56	0xbca22dbc	-0.019797198
57	0xbcf23858	-0.029567882
58	0x3c863f2f	0.01638755
59	0x3cdc0d7a	0.026861895
60	0xbcf0922a	-0.029366571
61	0x3c9fc295	0.019501964
62	0x3cbbb04e	0.022911217
63	0xbb0e984a	-0.0021758252
64	0x3c6a7c78	0.014311902
65	0x3c6d4b94	0.014483351
66	0x3c4bb8d4	0.012434203
67	0xbb547383	-0.0032417483
68	0x3cf5cd1f	0.030005036
69	0xbc64d9ec	-0.013967972
70	0xbc855651	-0.01627651
71	0xbc8878db	-0.01665919
72	0x3c642983	0.013925913
73	0x3c9abe76	0.018889647
74	0x3c2440f1	0.010025249
75	0x3cd6cda3	0.026221102
76	0xbd005bc6	-0.031337522
77	0x3ca15978	0.019695982
78	0x3c8fb619	0.017542886
79	0x3b0c6bfd	0.002142667
80	0xbcc4dcfa	-0.024031151
81	0xbc368207	-0.011139399
82	0x3ce1e752	0.027576122
83	0x3d104669	0.0352234
84	0x3cf3003a	0.029663194
85	0x3bc17bb8	0.005904641
86	0xbc260ff4	-0.010135639
87	0xbb9fac8c	-0.004872864
88	0xbd0e0489	-0.034672294
89	0xbc4ba4a7	-0.012429393
90	0xbcf85f5f	-0.030318914
91	0xbd08329b	-0.033251386
92	0xbc8328a3	-0.016010588
93	0xbc3de553	-0.01159032
94	0x3bdc3752	0.006720462
95	0x3c8a3d10	0.01687482
96	0xbcb6113a	-0.022225011
97	0xbcc8dca3	-0.02451927
98	0xbce7fc42	-0.028318528
99	0x3c979a51	0.018506201
100	0x3a7317f6	0.0009273285
101	0xbcd6012f	-0.026123611
102	0xbd406185	-0.046968002
103	0xbc1b1786	-0.009466058
104	0x3c8719c7	0.016491784
105	0x3c51a464	0.012795541
106	0xbc20bb5a	-0.009810293
107	0x37b067f1	2.1029236e-05
108	0xbb94c01c	-0.004539503
109	0xbcf10e37	-0.029425723
110	0x3ce27b60	0.02764672
111	0xbc884c50	-0.016637951
112	0xbcc59eac	-0.024123512
113	0x3cf8fdf6	0.030394536
114	0x3ab5ccde	0.0013870259
115	0x3c154879	0.009111517
116	0x3b7ec4f6	0.0038874722
117	0xbc1f6008	-0.0097274855
118	0xbce6534f	-0.028115897
119	0xbce2b1ab	-0.02767261
120	0xbb172d2e	-0.00230677
121	0xbccb8de9	-0.024847941
122	0xbc5bc316	-0.013413211
123	0xbc0241f9	-0.007950299
124	0xbb85449b	-0.0040670163
125	0xbcb540f2	-0.022125695
126	0x3a358b7f	0.00069253886
127	0xbc1b2aac	-0.009470623
128	0x3c6db7bf	0.0145091405
129	0x3d2c50e3	0.042069327
130	0xbce2ed42	-0.027701024
131	0xbcc04f4b	-0.02347531
132	0xbcd58be2	-0.026067678
133	0x3c9c6acd	0.019093895
134	0xbcec58ce	-0.02885094
135	0xbcb80c0e	-0.022466686
136	0x3c2d39e8	0.010572888
137	0x3c4defda	0.012569392
138	0x3ccc3b97	0.024930758
139	0x3d085a8f	0.03328949
140	0x3b4e9ce0	0.003152661
141	0xbc594fea	-0.013263682
142	0x3d0f31c6	0.034959577
143	0x3d0ab865	0.03386726
144	0x3b2159eb	0.0024620246
145	0xbd1143e8	-0.03546515
146	0xbcea5a4a	-0.028607506
147	0x3b2f831e	0.0026781033
148	0x3a89928f	0.0010495948
149	0xbd24a6f3	-0.040198278
150	0xbd324e19	-0.04353151
151	0xbc85a0eb	-0.016312083
152	0xbd157805	-0.036491413
153	0x3c87b9e7	0.016568137
154	0x3d46f560	0.04857385
155	0x3d41047d	0.04712342
156	0x3d90c74d	0.070692636
157	0x3c40b061	0.011760802
158	0x3d2faa02	0.04288674
159	0x3cd8b790	0.026454717
160	0x3be1797e	0.006880938
161	0xbca6b6ee	-0.0203509
162	0xbca17d9d	-0.019713217
163	0xbc4b5658	-0.012410723
164	0xbca91107	-0.020638002
165	0xbd0fdef1	-0.035124723
166	0x3c647d72	0.013945924
167	0xbd0ddabb	-0.034632426
168	0x3c395cdc	0.011313643
169	0xbac9bf6b	-0.001539213
170	0xbc4fa64e	-0.0126739275
171	0x3c980db0	0.018561214
172	0x3ca7b219	0.020470666
173	0xbcce71fe	-0.02520084
174	0xbcdb15d4	-0.026743807
175	0xbc682c3b	-0.014170702
176	0x3b95b1a4	0.0045682956
177	0xbd4e9a21	-0.050439958
178	0xbc3ce73d	-0.011529741
179	0x3ca1a3db	0.019731453
180	0x3c2f0d50	0.010684326
181	0x3c5d9b09	0.013525733
182	0x3cdb346b	0.026758393
183	0x3c8d8e01	0.017279627
184	0x3d6efec4	0.058348432
185	0x3d3d7574	0.04625459
186	0x3dabd308	0.083898604
187	0x3c035532	0.008015918
188	0xbb1a484c	-0.0023541627
189	0x3c3b4b81	0.011431576
190	0xbc5833ed	-0.013195974
191	0xbd0295bc	-0.03188108
192	0xbc31a63e	-0.010842858
193	0x3c8a9f1d	0.016921574
194	0x3c72d946	0.01482231
195	0xbcd3f9c1	-0.025875928
196	0x3cd826b1	0.026385637
197	0xbd07d3fd	-0.033161152
198	0xbcd48cb6	-0.025946002
199	0xbc200ae4	-0.0097682215
200	0xbc5c974d	-0.013463807
201	0xbb8d6c74	-0.004315907
202	0xbadccc7c	-0.0016845609
203	0xbc3220c8	-0.0108720735
204	0xbce7110e	-0.028206374
205	0xbcd123fa	-0.02552985
206	0x3c037379	0.008023136
207	0x3c7ea816	0.0155430045
208	0x3d187640	0.037222147
209	0x3d0a05eb	0.03369705
210	0x3ca8fc9b	0.020628264
211	0x3cf75e7b	0.030196419
212	0x3d8d9e86	0.069150016
213	0x3d86dde0	0.06585288
214	0x3db86d26	0.090051934
215	0x3cf657cf	0.030071167
216	0x3cc4e4c1	0.02403486
217	0x3d30d37a	0.04317043
218	0x3d194695	0.037420828
219	0xbd14b5d9	-0.036306236
220	0xbc9ba3d0	-0.01899901
221	0xbc5e3b50	-0.013563946
222	0x3c8fc1e0	0.017548501
223	0x3c293db9	0.010329657
224	0xbc8e5bab	-0.017377695
225	0xbcfe151c	-0.031015925
226	0x3cb980aa	0.02264436
227	0xbc9de847	-0.019275798
228	0x3c5d42dc	0.01350471
229	0xbd15c744	-0.036566988
230	0x3b1f2f23	0.002428957
231	0xbb24c2d6	-0.0025140545
232	0x390502e3	0.00012684944
233	0xbc7c5f75	-0.015403618
234	0xbcc8f730	-0.02453193
235	0xbcb2dff9	-0.021835314
236	0x3c0f4d20	0.008746415
237	0x3d6ade9e	0.05734121
238	0x3d53479b	0.05158196
239	0x3c3a775d	0.0113809975
240	0x3d6b5c7c	0.057461247
241	0x3c192c64	0.009348962
242	0x3d114106	0.0354624
243	0x3d756f2d	0.05992048
244	0x3cd76ed3	0.026297962
245	0x3d54c80d	0.051948596
246	0xbc2d2cce	-0.010569764
247	0x3c2017fb	0.009771342
248	0xbcb20d5a	-0.021734882
249	0x3c6a00f5	0.014282455
250	0x3ce4e37e	0.027940508
251	0x3c1ad709	0.009450682
252	0xbcd34c2b	-0.025793156
253	0xbcd4667c	-0.025927775
254	0x3ce92fa2	0.028465096
255	0xbd0ba658	-0.034094185

linear.bias f4 [10]
0	0xbc9ba26b	-0.018998345
1	0x3d8f7074	0.070038706
2	0xbd1fe62e	-0.039037876
3	0x3c1a4bf3	0.009417522
4	0x3d4b0468	0.04956475
5	0x3d8fc554	0.07020059
6	0xbd0b8bf9	-0.034069035
7	0x3da1bdb4	0.07897511
8	0xbdba5c9a	-0.090996936
9	0x3caab5f0	0.020838708
